data.pth (torch, 4991 bytes, 6 tensors)

l1.weight f4 [8, 54]
000000 4c 80 42 3e 2d b2 2b be 5b d8 bd 3e 00 0b 9e 3e
       0.18994254 -0.16767187 0.3707913 0.30867767
000010 c7 65 f5 3e f7 d2 96 be e3 9a 66 be 62 c0 a0 3e
       0.47929212 -0.29457828 -0.22520022 0.31396776
000020 34 12 b3 3e bd d6 94 3e fb f6 b5 3e 8b e9 44 3f
       0.34974825 0.29070082 0.35539994 0.7691886
000030 37 21 0a 3f c6 5b 43 3f a0 38 95 be 5c 64 00 3f
       0.5395693 0.7631191 -0.29144764 0.50153136
000040 db 51 a8 3e 43 93 47 bd 19 1c 82 3e 6f 35 14 3f
       0.3287495 -0.048724424 0.25412062 0.57894033
000050 d8 f8 eb bd cb 8f ec 3e a3 98 03 3f b0 7d 3c 3f
       -0.115220726 0.46203455 0.5140478 0.73629284
000060 59 f4 cb 3e 7c e9 6b 3e 64 b1 e1 3e 08 c3 f3 be
       0.3983486 0.23038286 0.4408065 -0.47609735
000070 48 f9 82 3e 14 a9 be be 00 73 47 3d 90 86 4a 3f
       0.25580812 -0.3723837 0.048693657 0.79111576
000080 b6 25 b0 3e 44 a2 d5 3e 95 32 3a be 93 0b e2 3e
       0.3440377 0.4172536 -0.18183358 0.44149455
000090 68 90 88 3e 62 74 d0 3e 22 83 61 be a0 1c a9 be
       0.26672673 0.40713793 -0.2202268 -0.33029652
0000a0 44 04 02 3e 70 b7 9c 3e 81 89 2d 3f 94 3b 16 be
       0.1269694 0.30608702 0.6778794 -0.14671165
0000b0 88 bb 49 3f 37 5f b5 bd 13 01 96 be 53 1c 3b be
       0.78801775 -0.088560514 -0.29297695 -0.18272524
0000c0 a8 03 c1 3e ab ad e3 3e 62 9f 0d 3f 16 40 bc 3e
       0.37698102 0.44468436 0.55321324 0.36767644
0000d0 08 0c 49 be c1 5f 4d 3c 5e 06 39 be 4f 68 df 3e
       -0.19633496 0.012535037 -0.18068835 0.4363427
0000e0 61 62 b6 be 5d 08 dc 3e 35 67 5a 3d f8 bc 3b 3f
       -0.35621932 0.4297513 0.053321082 0.7333522
0000f0 d5 53 4d be b0 c9 26 be ff 3b ef be 70 ac 6f be
       -0.2005151 -0.16287875 -0.4672546 -0.23405623
000100 41 f5 af 3e 14 83 25 be 52 d9 5f be 18 a8 c8 be
       0.343668 -0.16163284 -0.21860245 -0.39190745
000110 33 9e a1 3e 90 c9 08 3c 09 49 96 3e 5a d8 09 3f
       0.3156601 0.0083488375 0.29352596 0.5384575
000120 20 c9 97 be 34 25 28 3f b5 6d f4 3b 16 db f4 3e
       -0.29645634 0.6568177 0.007459367 0.478234
000130 6d 12 16 3f e4 23 ce 3e 96 e2 92 bd 45 23 80 3e
       0.58621866 0.40261757 -0.07172124 0.2502691
000140 d8 58 91 be d9 31 0a 3f 04 dc 0f be 8d 7e ec 3e
       -0.28388095 0.5398231 -0.14048773 0.461903
000150 f1 bf c7 3e 04 2f 64 be a9 64 5d 3c e5 e9 d9 be
       0.39013627 -0.2228356 0.013512769 -0.4256126
000160 79 f6 8a 3e 69 c3 36 3b 02 a8 28 be a3 23 16 bf
       0.2714117 0.002788747 -0.1647034 -0.5864813
000170 74 ea 61 be f8 53 62 be 67 06 02 3f 7c 18 af be
       -0.22062093 -0.22102344 0.5079102 -0.34198368
000180 e6 c3 24 be aa 60 94 3e 6c 0c c5 be 37 1c d0 3e
       -0.16090354 0.2898 -0.3848604 0.40646526
000190 dd 29 02 bf 38 d2 33 be 63 20 af 3d 43 2f c2 be
       -0.5084513 -0.17560661 0.08551099 -0.37926683
0001a0 f5 a5 13 be a1 81 20 be 38 99 2b be db bf f3 3d
       -0.14418776 -0.1567445 -0.16757667 0.11901828
0001b0 e9 98 21 be 8b 90 fc 3e f4 35 0a bf d8 68 db 3e
       -0.15780987 0.49329028 -0.53988576 0.42853427
0001c0 df 3c 4a 3e a8 13 e3 be 82 c7 25 be f6 59 8c be
       0.19749783 -0.44350934 -0.16189387 -0.27412385
0001d0 b5 5e 01 bf 43 f4 e6 be 91 26 90 3e 8b 7a 69 be
       -0.50535136 -0.45108232 0.28154424 -0.22800653
0001e0 98 3a c9 3e f0 b7 8b bd 4a 84 d2 3e c3 fe 57 be
       0.39302516 -0.06822193 0.41116554 -0.21093278
0001f0 c7 80 86 3e fa a1 d5 be 4b e4 9c 3e 6f 09 2a 3f
       0.26270124 -0.4172514 0.30642924 0.66420645
000200 52 e9 09 be 42 fe 04 3f da e2 35 3f 42 ab a5 3e
       -0.13467911 0.51950467 0.71049273 0.32357222
000210 e9 71 51 bd c0 8f f7 3e cf 5b 80 3e aa 78 16 3f
       -0.051134024 0.4835186 0.25070044 0.5877787
000220 f6 ca b0 3d bd e1 ff 3e 3b ea 6e be 06 45 d3 bd
       0.08632462 0.49976912 -0.2333154 -0.103158996
000230 83 3a 00 be b1 6f 15 bf e8 f9 23 3f 2b c8 e3 bd
       -0.1252232 -0.5837355 0.640532 -0.111221634
000240 08 06 4f 3d 39 7c d8 be bd 00 e1 bd 6d 9f 83 bd
       0.05054286 -0.42282274 -0.10986469 -0.064268924
000250 7a 13 c8 be 82 24 04 3f 21 ff 6c be ec e9 01 3f
       -0.3907736 0.51618207 -0.23144199 0.5074756
000260 b5 ee cb be dc a8 25 3f 61 02 0e bf f7 7a 66 be
       -0.39830557 0.64710784 -0.5547238 -0.22507845
000270 df e6 e8 3e c7 a0 b8 3e 10 fc 7e be 3c 7c 41 3e
       0.4548864 0.36060163 -0.24900842 0.18895048
000280 88 15 34 be f5 c9 2b 3e cd 04 41 be 9a 1c bd be
       -0.17586339 0.16776259 -0.18849488 -0.36935884
000290 3c 4d 3a 3f a0 b3 22 3e 16 2f 58 3f 3a 32 f6 be
       0.727741 0.15888834 0.8444685 -0.48085195
0002a0 b3 bc 8f 3e 47 c5 00 3f aa da 04 3f fa 1f f0 3e
       0.28073654 0.5030102 0.51896155 0.46899396
0002b0 cc df ce 3e f3 46 0e 3f 4a f0 02 3f 10 b4 1d 3f
       0.40405118 0.5557701 0.511479 0.6160288
0002c0 53 7f 3f bd 75 8b c9 3e 57 4a f4 3e 82 61 d9 be
       -0.046752285 0.3936421 0.47712967 -0.42457205
0002d0 00 bc b4 3e d3 ea 28 3f cc 1e 5f be 86 cc 09 3f
       0.35299683 0.65983313 -0.21789092 0.53827703
0002e0 04 f2 06 3f e1 8c c9 3e e2 30 02 3f da 90 91 3e
       0.52713037 0.39365295 0.5085584 0.28430825
0002f0 0e 36 f8 3e 21 3d 50 be dc ba a7 3e 18 08 b1 be
       0.4847874 -0.20335819 0.3275975 -0.34576488
000300 b8 b4 0b be 59 bc 0c 3f 62 f4 08 3e 45 e6 1e 3f
       -0.13643157 0.54974896 0.13374475 0.62070113
000310 e3 fc 49 bd df 5f cf 3e 3f ba 55 3e 8a c7 c9 3e
       -0.049313437 0.4050283 0.20871828 0.3941005
000320 85 db a3 3e 08 16 f3 3e 62 aa b0 be c8 83 a9 3e
       0.32003418 0.47477746 -0.34504992 0.33108354
000330 6c e1 2f 3f a7 60 60 be b5 b7 e9 3e 77 66 f1 bd
       0.6870334 -0.2191187 0.4564797 -0.11787122
000340 90 e4 1e bf ca d2 be bd f1 02 9c 3e b7 c9 d1 3e
       -0.6206751 -0.093175486 0.30470994 0.4097421
000350 a5 fb e1 3e 08 e0 84 3e b9 eb c7 3e c7 c3 5f 3e
       0.44137302 0.25952172 0.3904703 0.21852027
000360 eb 2f 14 3f 60 9c 13 3f 58 54 4a 3e 69 fb 79 3e
       0.57885617 0.57660484 0.19758737 0.24412312
000370 fa d9 85 3e 2a 6d 80 3e 4a 16 c9 3e be 51 8a 3e
       0.26142865 0.25083286 0.39274818 0.2701549
000380 72 66 48 3e 05 39 e6 3e ff e6 32 3e 6f 65 62 be
       0.1957033 0.44965377 0.1747093 -0.22109006
000390 56 73 80 bd fc 04 a0 be 92 dd 10 3f 4c 02 ad be
       -0.062719986 -0.31253803 0.5658809 -0.33790815
0003a0 35 9b 93 3e 53 86 79 3d e8 ea 90 be 7c 0a bf 3e
       0.2882935 0.060919117 -0.2830422 0.37312686
0003b0 42 5d ff 3e 71 99 60 3e 65 08 58 3e a4 18 e6 bc
       0.49875838 0.21933533 0.21096952 -0.028087921
0003c0 ea fe 8c 3d bf fd 94 3d f2 ba 9d be aa f0 ea 3e
       0.068845585 0.07274961 -0.3080669 0.45886737
0003d0 c4 5d 47 bd f7 2d 0f 3f 9f fe cc 3c be 98 c9 be
       -0.048673406 0.5592951 0.025023757 -0.39374346
0003e0 3a 72 c5 3e fc 26 95 3e d9 6a 3a 3f 78 cd 97 be
       0.3856371 0.29131305 0.72819287 -0.29648948
0003f0 e8 81 2d 3d 9b 13 db 3e e7 7c 04 3e cb 4f 5b 3e
       0.042360216 0.42788395 0.12938271 0.21417157

l1.bias f4 [8]
000000 e6 4f 35 3f 16 a3 61 3f b9 0d 10 3f 24 c0 ff 3e
       0.7082504 0.88139474 0.5627094 0.4995128
000010 6a ab 73 3f d6 c8 34 3f 3a b7 a4 3e 1b a8 a6 3e
       0.9518343 0.7061895 0.3217104 0.3255013

l2.weight f4 [8, 8]
000000 c6 4b ab 3f 8e 0e b3 be ff fa 8d 3e c3 fa bc 3f
       1.3382499 -0.34972042 0.27730557 1.4764026
000010 7f 65 42 be 8d 81 ca be 14 05 99 be 8c 70 b9 3e
       -0.1898403 -0.39551964 -0.29886687 0.3621868
000020 9e 06 07 3f f8 eb 48 bd ee c2 94 bf 70 32 1a bf
       0.5274447 -0.049053162 -1.1621988 -0.6023321
000030 79 3c 0f 3f 29 44 c7 3f 79 11 93 3e 81 f6 9a 3e
       0.5595165 1.5567676 0.28724268 0.30266193
000040 52 96 d2 bd f1 14 9b bf 94 7e ae bf 56 a3 a4 3f
       -0.102825776 -1.2115766 -1.3632379 1.2862346
000050 8b 83 ed 3d d4 d4 eb 3e bc 06 7e 3e ab 13 7f be
       0.115973555 0.46060812 0.24807256 -0.24909846
000060 45 80 48 bf 51 93 6a be 56 39 f1 bd 1c eb ea 3e
       -0.78320724 -0.22907759 -0.11778514 0.458825
000070 95 a0 7f 3e ac 71 ee 3e 1b b1 eb 3e 95 fe 53 bf
       0.24963601 0.465711 0.46033558 -0.82810336
000080 50 9a 00 be b7 c4 57 bf 22 93 a1 3e b1 54 12 be
       -0.12558866 -0.8428454 0.31557566 -0.1429012
000090 90 75 7c 3f ef 3e 58 3e 6a 82 bb 3f 02 94 bb 3f
       0.98616886 0.21117757 1.4649174 1.4654543
0000a0 61 dc 6e 3f 3f 95 ab 3e aa bb 5e 3f 90 15 22 3f
       0.9330502 0.33512303 0.870051 0.6331415
0000b0 94 ba 91 3a de 6c 75 bf e7 4e 33 3d 63 1d dd bc
       0.0011118227 -0.95869243 0.04377642 -0.026991552
0000c0 a1 ab 80 3d 46 4a b4 3f 4d e7 7c 3f ed e7 06 3e
       0.062827356 1.4085166 0.98790437 0.1317441
0000d0 6b 7f 98 3f b5 80 d2 3e 00 f1 3c bf 89 ed ef be
       1.1913885 0.4111382 -0.73805237 -0.46860912
0000e0 88 3d 81 bd 4a d1 77 3e 8b 05 66 be e6 1e 53 be
       -0.06310564 0.24200931 -0.22463052 -0.20617256
0000f0 b4 95 8d 3d 80 44 ae be d4 8b bf bd 98 78 1c 3d
       0.06913319 -0.34036636 -0.09352842 0.038200945

l2.bias f4 [8]
000000 35 15 b6 3e ce 3d 05 3f 72 38 a6 be b6 6c 6c be
       0.35563055 0.5204743 -0.3246494 -0.23088345
000010 1b 12 98 bd a7 45 44 3e f2 05 27 3f dc 08 82 be
       -0.07425328 0.19167195 0.65243447 -0.25397384

l3.weight f4 [7, 8]
000000 ae c1 1a 3f 60 39 b9 3d 44 3e 53 3e c8 97 ca be
       0.6045178 0.090441465 0.20629221 -0.39568925
000010 40 9f 8e bf 5a 38 eb 3d 36 84 14 bf 90 d0 a6 bd
       -1.1142349 0.114853576 -0.5801424 -0.08145249
000020 21 97 84 bf 6f 53 81 bf d9 b0 5a be a9 70 2d bf
       -1.0358621 -1.0103587 -0.21356525 -0.6775003
000030 d1 66 e5 3e 41 d3 d9 bd 1c ad 00 3f 90 5e 00 3d
       0.44805005 -0.106359966 0.50264144 0.03134018
000040 7c ff 70 bf 14 ce 4d 3f 5b af 05 bf d8 88 8b be
       -0.9413984 0.80392575 -0.52220696 -0.2725284
000050 a0 9d aa bf 3f d2 9e bf 81 2c 6e 3f 3e 12 96 be
       -1.3329353 -1.2407912 0.9303666 -0.29310793
000060 ad a3 e6 3e 7d 48 bd bf 01 dd d6 bf d1 3c dc be
       0.4504675 -1.4787747 -1.6786195 -0.4301515
000070 e5 cf 9c bf d5 70 b1 3e 33 7c 5d 3f 1a 50 5f be
       -1.2250944 0.34656397 0.8651764 -0.218079
000080 3c 72 fd 3e d4 b5 a8 bf 0b ee 9a bf bb 7d ec be
       0.49501216 -1.318049 -1.2103895 -0.46189675
000090 7c 57 88 3e 3e 1e 86 3e 65 1a 65 bf d5 38 81 3e
       0.26629245 0.26194948 -0.894934 0.25238672
0000a0 c0 42 0d 3e 70 f0 66 3d 98 a3 5f 3f d4 df d3 3e
       0.13794994 0.056381643 0.87359 0.41381705
0000b0 0a 1a 86 3e b9 b2 82 bf 3b c5 31 bf 10 cd a4 3d
       0.2619174 -1.0210792 -0.69441575 0.08046925
0000c0 d9 15 9d bf c5 ca 1d 3f 7b 5f 84 bf 7c 44 6a bf
       -1.2272292 0.61637527 -1.0341638 -0.9151075
0000d0 92 6e 3a 3f b0 85 ad bf 96 23 b4 be 15 c3 90 3e
       0.72824967 -1.3556423 -0.351834 0.28273836

l3.bias f4 [7]
000000 a5 a8 70 bd fd 7e b0 be eb b7 19 3c 85 04 d4 bd
       -0.058754582 -0.34471884 0.009382228 -0.103524245
000010 63 43 e5 ba 3c ca cc bc 83 59 05 3e
       -0.0017491396 -0.024998777 0.13022427
